…
g value as both of these have to do with reducing spatial dimension which impacts how much important feature remains.\nTo further understand what our model is doing, let’s take a look at what is happening to our image data at each step.\n\nmodel1.summary()\n\nModel: \"sequential\"\n\n\n\n┏━━━━━━━━━━━━━━━━━━━━━━━━━━━━━━━━━━━━━━┳━━━━━━━━━━━━━━━━━━━━━━━━━━━━━┳━━━━━━━━━━━━━━━━━┓\n┃ Layer (type)                         ┃ Output Shape                ┃         Param # ┃\n┡━━━━━━━━━━━━━━━━━━━━━━━━━━━━━━━━━━━━━━╇━━━━━━━━━━━━━━━━━━━━━━━━━━━━━╇━━━━━━━━━━━━━━━━━┩\n│ conv2d (Conv2D)                      │ (None, 148, 148, 32)        │             896 │\n├──────────────────────────────────────┼─────────────────────────────┼─────────────────┤\n│ max_pooling2d (MaxPooling2D)         │ (None, 74, 74, 32)          │               0 │\n├──────────────────────────────────────┼─────────────────────────────┼─────────────────┤\n│ conv2d_1 (Conv2D)                    │ (None, 72, 72, 32)          │           9,248 │\n├──────────────────────────────────────┼─────────────────────────────┼─────────────────┤\n│ max_pooling2d_1 (MaxPooling2D)       │ (None, 36, 36, 32)          │               0 │\n├──────────────────────────────────────┼─────────────────────────────┼─────────────────┤\n│ conv2d_2 (Conv2D)                    │ (None, 34, 34, 64)          │          18,496 │\n├──────────────────────────────────────┼─────────────────────────────┼─────────────────┤\n│ flatten (Flatten)                    │ (None, 73984)               │               0 │\n├──────────────────────────────────────┼─────────────────────────────┼─────────────────┤\n│ dense (Dense)                        │ (None, 64)                  │       4,735,040 │\n├──────────────────────────────────────┼─────────────────────────────┼─────────────────┤\n│ dense_1 (Dense)                      │ (None, 10)                  │             650 │\n├──────────────────────────────────────┼─────────────────────────────┼─────────────────┤\n│ dropout (Dropout)                    │ (None, 10)                  │               0 │\n└──────────────────────────────────────┴─────────────────────────────┴─────────────────┘\n\n\n\n Total params: 4,764,330 (18.17 MB)\n\n\n\n Trainable params: 4,764,330 (18.17 MB)\n\n\n\n Non-trainable params: 0 (0.00 B)\n\n\n\nAnd with that, let’s start configuring the training process for our neural network model. To do this, we need to specify what optimization algorithm, loss function (how 
…
put_dim` argument to a layer. When using Sequential models, prefer using an `Input(shape)` object as the first layer in the model instead.\n  super().__init__(**kwargs)\n\n\nAgain, let’s take a look at our summary and start training.\n\nmodel2.summary()\n\nModel: \"sequential_29\"\n\n\n\n┏━━━━━━━━━━━━━━━━━━━━━━━━━━━━━━━━━━━━━━┳━━━━━━━━━━━━━━━━━━━━━━━━━━━━━┳━━━━━━━━━━━━━━━━━┓\n┃ Layer (type)                         ┃ Output Shape                ┃         Param # ┃\n┡━━━━━━━━━━━━━━━━━━━━━━━━━━━━━━━━━━━━━━╇━━━━━━━━━━━━━━━━━━━━━━━━━━━━━╇━━━━━━━━━━━━━━━━━┩\n│ random_flip_23 (RandomFlip)          │ (None, 150, 150, 3)         │               0 │\n├──────────────────────────────────────┼─────────────────────────────┼─────────────────┤\n│ random_rotation_19 (RandomRotation)  │ (None, 150, 150, 3)         │               0 │\n├──────────────────────────────────────┼─────────────────────────────┼─────────────────┤\n│ conv2d_63 (Conv2D)                   │ (None, 148, 148, 32)        │             896 │\n├──────────────────────────────────────┼─────────────────────────────┼─────────────────┤\n│ max_pooling2d_42 (MaxPooling2D)      │ (None, 74, 74, 32)          │               0 │\n├──────────────────────────────────────┼─────────────────────────────┼─────────────────┤\n│ conv2d_64 (Conv2D)                   │ (None, 72, 72, 32)          │           9,248 │\n├──────────────────────────────────────┼─────────────────────────────┼─────────────────┤\n│ max_pooling2d_43 (MaxPooling2D)      │ (None, 36, 36, 32)          │               0 │\n├──────────────────────────────────────┼─────────────────────────────┼─────────────────┤\n│ conv2d_65 (Conv2D)                   │ (None, 34, 34, 64)          │          18,496 │\n├──────────────────────────────────────┼─────────────────────────────┼─────────────────┤\n│ flatten_21 (Flatten)                 │ (None, 73984)               │               0 │\n├──────────────────────────────────────┼─────────────────────────────┼─────────────────┤\n│ dense_42 (Dense)                     │ (None, 64)                  │       4,735,040 │\n├──────────────────────────────────────┼─────────────────────────────┼─────────────────┤\n│ dense_43 (Dense)                     │ (None, 10)                  │             650 │\n├──────────────────────────────────────┼─────────────────────────────┼─────────────────┤\n│ dropout_5 (Dropout)                  │ (None, 10)                  │               0 │\n└──────────────────────────────────────┴─────────────────────────────┴─────────────────┘\n\n\n\n Total params: 4,764,330 (18.17 MB)\n\n\n\n Trainable params: 4,764,330 (18.17 MB)\n\n\n\n Non-trainable params: 0 (0.00 B)\n\n\n\n\nmodel2.compile(optimizer='adam',\n              loss=keras.losses.SparseCategoricalCrossentropy(from_logits=True),\n              metrics=['accuracy'])\n\n\nhistory = 
…
ling2D((3, 3)),\n    layers.Conv2D(64, (3, 3), activation='relu'),\n    layers.Flatten(),\n    layers.Dense(64, activation='relu'),\n    layers.Dropout(0.2),\n    layers.Dense(2),\n])\n\nNow, let’s get our summary and train the model.\n\nmodel3.summary()\n\nModel: \"sequential_4\"\n\n\n\n┏━━━━━━━━━━━━━━━━━━━━━━━━━━━━━━━━━━━━━━┳━━━━━━━━━━━━━━━━━━━━━━━━━━━━━┳━━━━━━━━━━━━━━━━━┓\n┃ Layer (type)                         ┃ Output Shape                ┃         Param # ┃\n┡━━━━━━━━━━━━━━━━━━━━━━━━━━━━━━━━━━━━━━╇━━━━━━━━━━━━━━━━━━━━━━━━━━━━━╇━━━━━━━━━━━━━━━━━┩\n│ functional_13 (Functional)           │ (None, 150, 150, 3)         │               0 │\n├──────────────────────────────────────┼─────────────────────────────┼─────────────────┤\n│ random_flip_4 (RandomFlip)           │ (None, 150, 150, 3)         │               0 │\n├──────────────────────────────────────┼─────────────────────────────┼─────────────────┤\n│ random_rotation_4 (RandomRotation)   │ (None, 150, 150, 3)         │               0 │\n├──────────────────────────────────────┼─────────────────────────────┼─────────────────┤\n│ conv2d_12 (Conv2D)                   │ (None, 148, 148, 32)        │             896 │\n├──────────────────────────────────────┼─────────────────────────────┼─────────────────┤\n│ max_pooling2d_8 (MaxPooling2D)       │ (None, 49, 49, 32)          │               0 │\n├──────────────────────────────────────┼─────────────────────────────┼─────────────────┤\n│ conv2d_13 (Conv2D)                   │ (None, 47, 47, 32)          │           9,248 │\n├──────────────────────────────────────┼─────────────────────────────┼─────────────────┤\n│ max_pooling2d_9 (MaxPooling2D)       │ (None, 15, 15, 32)          │               0 │\n├──────────────────────────────────────┼─────────────────────────────┼─────────────────┤\n│ conv2d_14 (Conv2D)                   │ (None, 13, 13, 64)          │          18,496 │\n├──────────────────────────────────────┼─────────────────────────────┼─────────────────┤\n│ flatten_4 (Flatten)                  │ (None, 10816)               │               0 │\n├──────────────────────────────────────┼─────────────────────────────┼─────────────────┤\n│ dense_8 (Dense)                      │ (None, 64)                  │         692,288 │\n├──────────────────────────────────────┼─────────────────────────────┼─────────────────┤\n│ dropout_4 (Dropout)                  │ (None, 64)                  │               0 │\n├──────────────────────────────────────┼─────────────────────────────┼─────────────────┤\n│ dense_9 (Dense)                      │ (None, 2)                   │             130 │\n└──────────────────────────────────────┴─────────────────────────────┴─────────────────┘\n\n\n\n Total params: 2,163,176 (8.25 MB)\n\n\n\n Trainable params: 721,058 (2.75 MB)\n\n\n\n Non-trainable params: 0 (0.00 B)\n\n\n\n Optimizer params: 1,442,118 (5.50 MB)\n\n\n\n\nmodel3.compile(optimizer='adam',\n              loss=keras.losses.SparseCategoricalCrossentropy(from_logits=True),\n         
…
_and_vertical\", input_shape=(150, 150, 3)),\n    layers.RandomRotation(0.2),\n    base_model_layer,\n    layers.GlobalMaxPool2D(),\n    layers.Dense(2)\n])\n\nFor one last time, let’s take a look at our summary and then start training.\n\nmodel4.summary()\n\nModel: \"sequential\"\n\n\n\n┏━━━━━━━━━━━━━━━━━━━━━━━━━━━━━━━━━━━━━━┳━━━━━━━━━━━━━━━━━━━━━━━━━━━━━┳━━━━━━━━━━━━━━━━━┓\n┃ Layer (type)                         ┃ Output Shape                ┃         Param # ┃\n┡━━━━━━━━━━━━━━━━━━━━━━━━━━━━━━━━━━━━━━╇━━━━━━━━━━━━━━━━━━━━━━━━━━━━━╇━━━━━━━━━━━━━━━━━┩\n│ random_flip (RandomFlip)             │ (None, 150, 150, 3)         │               0 │\n├──────────────────────────────────────┼─────────────────────────────┼─────────────────┤\n│ random_rotation (RandomRotation)     │ (None, 150, 150, 3)         │               0 │\n├──────────────────────────────────────┼─────────────────────────────┼─────────────────┤\n│ functional_1 (Functional)            │ (None, 5, 5, 960)           │       2,996,352 │\n├──────────────────────────────────────┼─────────────────────────────┼─────────────────┤\n│ global_max_pooling2d                 │ (None, 960)                 │               0 │\n│ (GlobalMaxPooling2D)                 │                             │                 │\n├──────────────────────────────────────┼─────────────────────────────┼─────────────────┤\n│ dense (Dense)                        │ (None, 2)                   │           1,922 │\n└──────────────────────────────────────┴─────────────────────────────┴─────────────────┘\n\n\n\n Total params: 2,998,274 (11.44 MB)\n\n\n\n Trainable params: 1,922 (7.51 KB)\n\n\n\n Non-trainable params: 2,996,352 (11.43 MB)\n\n\n\nTwo things to note from this summary. The first is that between the base_model_layer, denoted by functional_1, and Dense() layer, there is a major jump in output sh
…
